…
     "duration": 0.096388,
     "end_time": "2023-09-13T19:00:34.726433",
     "exception": false,
     "start_time": "2023-09-13T19:00:34.630045",
     "status": "completed"
    },
    "scrolled": true,
    "tags": []
   },
   "outputs": [
    {
     "name": "stdout",
     "output_type": "stream",
     "text": [
      "Model: \"sequential\"\n",
      "_________________________________________________________________\n",
      " Layer (type)                Output Shape              Param #   \n",
      "=================================================================\n",
      " conv2d (Conv2D)             (None, 254, 254, 32)      896       \n",
      "                                                                 \n",
      " max_pooling2d (MaxPooling2D  (None, 127, 127, 32)     0         \n",
      " )                                                               \n",
      "                                                                 \n",
      " conv2d_1 (Conv2D)           (None, 125, 125, 64)      18496     \n",
      "                                                                 \n",
      " max_pooling2d_1 (MaxPooling  (None, 62, 62, 64)       0         \n",
      " 2D)                                                             \n",
      "                                                                 \n",
      " conv2d_2 (Conv2D)           (None, 60, 60, 64)        36928     \n",
      "                                                                 \n",
      " max_pooling2d_2 (MaxPooling  (None, 30, 30, 64)       0         \n",
      " 2D)                                                             \n",
      "                                                                 \n",
      " conv2d_3 (Conv2D)           (None, 28, 28, 128)       73856     \n",
      "                                                                 \n",
      " max_pooling2d_3 (MaxPooling  (None, 14, 14, 128)      0         \n",
      " 2D)                                                             \n",
      "                                                                 \n",
      " conv2d_4 (Conv2D)           (None, 12, 12, 128)       147584    \n",
      "                                                                 \n",
      " max_pooling2d_4 (MaxPooling  (None, 6, 6, 128)        0         \n",
      " 2D)                                                             \n",
      "                                                                 \n",
      " conv2d_5 (Conv2D)           (None, 4, 4, 256)         295168    \n",
      "                                                                 \n",
      " max_pooling2d_5 (MaxPooling  (None, 2, 2, 256)        0         \n",
      " 2D)                                                             \n",
      "                                                                 \n",
      " flatten (Flatten)           (None, 1024)              0         \n",
      "                                                                 \n",
      " dense (Dense)               (None, 256)               262400    \n",
      "                                                                 \n",
      " dense_1 (Dense)             (None, 1)                 257       \n",
      "                                                                 \n",
      "=================================================================\n",
      "Total params: 835,585\n",
      "Trainable params: 835,585\n",
      "Non-trainable params: 0\n",
      "_________________________________________________________________\n"
     ]
    }
   ],
   "source": [
    "base_model.summary()"
…
